Dev_tools/models/bench_mlp_v1_model.pt (torch, 7449 bytes, 6 tensors)

net.0.weight f4 [32, 12]
-0.4909508 0.03674112 -0.037325073 -0.25962925 -0.2523412 0.13137235 -0.0051617664 -0.10992599
-0.23151791 -0.05623619 -0.029445771 -0.11601327 -0.21119994 -0.42646134 -0.21308498 0.108369
0.0077036438 0.41672096 0.15702732 0.25379327 0.13310097 0.42866513 0.06827944 -0.26432794
0.0030761291 -0.18929987 -0.16380298 -0.4583041 -0.48063168 -0.31376988 -0.12654424 -0.31633857
0.25448185 0.18740593 -0.2983408 -0.2291895 0.23178695 0.06639318 -0.45397535 0.425491
-0.36755198 0.024430504 -0.19125234 -0.0891322 0.34671572 0.42548543 -0.32607818 -0.02139737
-0.14155595 -0.05065344 -0.36895275 -0.3119175 -0.22655529 0.4199537 -0.05122345 -0.30686632
0.42472816 -0.14744554 -0.13545804 0.024413362 0.34861594 0.061589755 0.23971257 -0.33556384
0.27967584 -0.5021863 -0.21805806 0.2687174 0.23798545 0.09186777 -0.0011537726 -0.297199
-0.2501256 -0.055172887 0.36834696 -0.41981697 -0.22485773 0.35474613 -0.05248702 -0.42463228
0.244961 -0.06578625 -0.11515433 -0.018533556 0.15030533 0.43835804 0.3527202 -0.15814558
-0.310142 0.11230943 0.24733202 0.3060438 0.109873064 0.3054332 0.14981554 -0.04189644
0.30330884 0.0077866837 0.11047715 -0.37843361 -0.2844478 -0.19637276 -0.024662651 -0.37134108
0.4697888 0.3355939 -0.47795326 -0.47202435 0.28574666 -0.021800188 -0.025567222 -0.45379063
-0.049917724 -0.3157078 -0.068592764 0.09663343 -0.01551227 -0.5657411 -0.048601914 0.4695054
0.50782263 -0.37634993 0.18801032 -0.15871587 -0.3557776 -0.48878887 0.14069214 0.09514734
0.24232031 0.011553594 0.18509106 0.19595236 0.28086957 0.07528391 -0.25886264 -0.08629048
0.43450636 -0.37651548 0.2715625 0.07825159 -0.12559696 0.1179768 -0.040137332 -0.32471874
-0.20501998 -0.01184773 0.41068447 -0.10700831 -0.34053907 0.3528935 -0.21378703 0.28640518
-0.2447188 -0.17204283 -0.02362894 0.10241556 0.40827677 0.06963864 -0.2619223 0.5549692
0.0823863 0.05518981 0.3262353 0.03460846 0.39753115 -0.17501715 -0.4680402 -0.2873805
0.047516126 0.393545 0.3564142 -0.38313413 0.3581877 -0.41144475 0.18410143 0.1806915
0.24297954 -0.03196892 0.07472014 -0.15692304 0.33690274 -0.09936048 -0.45545873 0.33278224
0.12618811 0.032026194 -0.37243932 -0.26952446 0.3212494 0.027088102 -0.114450715 -0.17192227
0.21191694 0.40863097 0.295778 -0.22192104 0.37254563 -0.33420488 -0.19416067 -0.16401893
-0.06297473 0.04559291 0.116350345 -0.12448947 0.04672426 0.44559118 -0.118225984 -0.119672805
-0.3129173 -0.44836313 -0.26619768 0.28132594 -0.0016763092 0.12969722 -0.45375785 -0.3963522
-0.24573162 0.1903476 0.041739825 -0.59910774 -0.52922124 0.35033402 -0.22035453 -0.32468954
0.36230814 0.019030763 0.26872653 0.29136094 -0.51815534 -0.3992743 -0.03321384 0.35272205
-0.3035587 0.27945778 -0.43395954 0.026868347 0.39534366 0.38986877 -0.37715146 -0.01611055
0.52788687 0.17047128 0.4003383 0.3968673 0.43203205 -0.054706167 -0.024456598 0.08580501
0.11927682 0.16874969 -0.049460985 0.036146473 -0.6400656 -0.03707178 -0.023519836 -0.13160822
00000000: e75d fbbe db7d 163d 2de2 18bd 20ee 84be
00000010: de32 81be 7986 063e 0924 a9bb e120 e1bd
00000020: 0813 6dbe eb57 66bd 4238 f1bc 5e98 edbd
00000030: cc44 58be 2459 dabe f332 5abe 91f0 dd3d
00000040: d96e fc3b 735c d53e c5cb 203e 31f1 813e
00000050: 9f4b 083e ff79 db3e 17d6 8b3d fe55 87be
00000060: e298 493b d3d7 41be f8bb 27be d6a6 eabe
00000070: 5b15 f6be 72a6 a0be d094 01be 21f7 a1be
00000080: 724b 823e 57e7 3f3e 20c0 98be a7b0 6abe
00000090: 8f59 6d3e 26f9 873d 756f e8be f5d9 d93e
000000a0: c62f bcbe 7b22 c83c a7d7 43be f18a b6bd
000000b0: b984 b13e 3ad9 d93e b8f3 a6be 8a49 afbc
000000c0: 0bf4 10be fb79 4fbd 60e7 bcbe a7b3 9fbe
000000d0: 1cfe 67be 2c04 d73e aecf 51bd 951d 9dbe
000000e0: f875 d93e f7fb 16be 83b5 0abe 88fe c73c
000000f0: ca7d b23e 8a45 7c3d 3677 753e 06cf abbe
00000100: ac31 8f3e 488f 00bf 9d4a 5fbe 5495 893e
00000110: 75b2 733e 2b25 bc3d 2f3a 97ba 782a 98be
00000120: 7610 80be f7fc 61bd f997 bc3e 40f2 d6be
00000130: 1b41 66be 49a1 b53e a1fc 56bd 6769 d9be
00000140: 0ed7 7a3e f1ba 86bd 09d6 ebbd afd3 97bc
00000150: a4e9 193e 7770 e03e be97 b43e eaf0 21be
00000160: efca 9ebe 7d02 e63d 9b44 7d3e c6b1 9c3e
00000170: 2105 e13d be61 9c3e 3f69 193e 9a9b 2bbd
00000180: 4c4b 9b3e 7027 ff3b d841 e23d 0dc2 c1be
00000190: 24a3 91be f115 49be 5409 cabc 6b20 bebe
000001a0: 2888 f03e f7d2 ab3e 4ab6 f4be 2dad f1be
000001b0: 634d 923e 4f96 b2bc 5a72 d1bc 3f57 e8be
000001c0: 8776 4cbd 74a4 a1be 5d7a 8cbd bfe7 c53d
000001d0: 2d27 7ebc 69d4 10bf cd12 47bd 0363 f03e
000001e0: aa00 023f f0b0 c0be c785 403e 6a86 22be
000001f0: 7b28 b6be 8942 fabe 9a11 103e 9cdc c23d
00000200: d122 783e 494b 3d3c 8388 3d3e bca7 483e
00000210: 23ce 8f3e 732e 9a3d a589 84be 10b9 b0bd
00000220: 9e77 de3e a3c6 c0be 3d0a 8b3e 5f42 a03d
00000230: 7d9c 00be d29d f13d 0b67 24bd 8941 a6be
00000240: c2f0 51be fb1c 42bc 3c45 d23e 2c27 dbbd
00000250: 235b aebe 75ae b43e fdea 5abe b3a3 923e
00000260: 9197 7abe ff2b 30be 7b91 c1bc 40bf d13d
00000270: a709 d13e b49e 8e3d ae1a 86be 7612 0e3f
00000280: 26ba a83d b60e 623d 5008 a73e 9ac1 0d3d
00000290: 3489 cb3e b237 33be f7a2 efbe 8923 93be
000002a0: 45a0 423d bb7e c93e ec7b b63e 282a c4be
000002b0: 6164 b73e e3a8 d2be 1685 3c3e 3107 393e
000002c0: a1cf 783e d8f1 02bd df06 993d 6fb0 20be
000002d0: 847e ac3e 827d cbbd e331 e9be 6f62 aa3e
000002e0: 7537 013e e62d 033d 5eb0 bebe 1cff 89be
000002f0: cd7a a43e dee7 dd3c 2365 eabd 640c 30be
00000300: c100 593e 1438 d13e 3770 973e 453f 63be
00000310: 4dbe be3e e71c abbe 0ed2 46be 94f4 27be
00000320: e5f8 80bd a2bf 3a3d 1749 ee3d 56f4 febd
00000330: f061 3f3d 8724 e43e 7720 f2bd 0417 f5bd
00000340: b236 a0be da8f e5be 104b 88be f409 903e
00000350: 9ab7 dbba 59cf 043e f352 e8be adee cabe
00000360: 12a1 7bbe 7bea 423e 61f7 2a3d 205f 19bf
00000370: 0b7b 07bf fb5e b33e 9ea4 61be b53d a6be
00000380: 7480 b93e 67e6 9b3c 8696 893e 432d 953e
00000390: d4a5 04bf ae6d ccbe 3c0b 08bd fc97 b43e
000003a0: 0c6c 9bbe 1715 8f3e f22f debe 021b dc3c
000003b0: 7c6a ca3e e19c c73e ff19 c1be 46fa 83bc
000003c0: 9823 073f 0690 2e3e 24f9 cc3e 3132 cb3e
000003d0: 4e33 dd3e 9313 60bd 3459 c8bc 89ba af3d
000003e0: 6847 f43d b8cc 2c3e 9a97 4abd 530e 143d
000003f0: 57db 23bf 94d8 17bd acac c0bc 4ec4 06be

net.0.bias f4 [32]
0.45534873 0.31068385 0.45943242 0.11300983 0.16435337 0.34709275 0.24831352 0.35959026
0.25222826 -0.13918105 0.28564283 0.46715117 0.32391137 0.3837292 0.1574712 0.14247416
0.27515754 0.27214482 0.4215809 -0.0949209 0.20308308 0.16710554 0.19395764 0.44517073
-0.06360175 0.3892433 0.107550085 0.21746089 0.111578666 -0.018782264 0.0710542 0.20528625
00000000: 7823 e93e f411 9f3e ba3a eb3e b371 e73d
00000010: 404c 283e 24b6 b13e e645 7e3e 371c b83e
00000020: 1024 813e 7a85 0ebe c73f 923e 702e ef3e
00000030: b6d7 a53e 2778 c43e 2140 213e bfe4 113e
00000040: 73e1 8c3e 9156 8b3e 74d9 d73e e465 c2bd
00000050: 03f5 4f3e b71d 2b3e d59c 463e 6bed e33e
00000060: a241 82bd e64a c73e 3843 dc3d 11ae 5e3e
00000070: 5b83 e43d 43dd 99bc dd84 913d 8f36 523e

net.2.weight f4 [16, 32]
0.16747098 0.1976656 0.19992077 0.0726149 0.16551602 0.096309446 0.36272845 0.21528977
0.33480623 -0.22912037 0.19350313 0.18773386 0.02794965 0.080817975 0.2674877 0.2603279
0.31299448 0.30590847 0.29203147 -0.008331958 0.010789129 0.0733394 0.05309602 0.13370553
0.017616255 0.19816351 0.17073889 0.30940756 0.28536752 -0.057159822 0.043190587 0.1094874
0.19385998 0.23335724 0.35873702 -0.42877236 0.3117727 0.15101841 0.4239559 0.3580133
0.2943572 0.48776928 0.4346802 -0.045179438 0.41740233 -0.5685116 0.2627463 -0.24180453
-0.0032949906 0.011340405 0.23488888 0.14778158 -0.29356778 -0.055057604 0.16687486 0.38705182
0.085237645 -0.4699695 0.35198888 0.2438059 -0.28966355 0.33380866 0.15649585 0.12441829
0.03245968 0.21975738 -0.016483864 -0.1843981 -0.065239385 0.0511684 -0.07166774 0.11083219
-0.13286169 0.28092936 0.04161026 -0.050837573 0.15713096 -0.012119468 -0.1491507 -0.13956861
-0.14231876 -0.15896411 -0.041655827 0.015893348 -0.11300352 -0.032631684 -0.036164314 -0.016583232
-0.16317374 -0.2008055 -0.015306913 -0.07451378 -0.19447948 0.10689275 0.103074394 0.12570214
0.27241766 -0.07010122 0.02437719 0.12261918 0.3427885 0.121362105 0.1854827 0.07668654
0.11082577 0.17589103 0.22513106 0.0101993 0.25930035 -0.0801056 0.00817282 0.062097944
0.21558546 0.33995554 0.20470464 0.3390565 -0.14060226 -0.4333456 -0.09066317 0.3619031
0.29892102 -0.2358517 0.14493977 0.36828375 -0.06893317 0.103064194 0.16467434 0.016726559
0.2929389 -0.09960918 0.20380661 0.10718836 0.34051025 0.22639918 0.09277274 0.16994709
0.19503307 0.06847439 0.18228945 0.012213276 0.056185003 0.10361048 0.28765085 -0.014956562
0.15662833 0.28402078 0.23841812 0.23008433 0.25446635 0.23082988 0.19558395 0.03127022
0.07760975 -0.17308916 0.12909485 0.17519835 0.10324716 -0.09958123 -0.1965263 0.24579492
0.2639051 0.3596706 -0.08606115 -0.2088421 0.091097325 -0.2852902 0.39408177 0.19217062
-0.04368249 -0.38241076 0.28104812 -0.34007573 0.262467 -0.36694834 -0.4685381 -0.27554637
-0.08183541 -0.19330724 0.22088005 -0.053300925 -0.23999307 0.090607375 0.39916134 0.13363378
-0.0865305 -0.06265714 0.2259692 0.23691268 -0.1571247 0.3565795 0.21384701 0.02549694
0.100636385 -0.16910724 0.14286986 0.12369397 -0.06426604 0.2974539 -0.017791297 0.19801591
0.25472787 -0.29232144 0.016818108 0.33863878 0.041505616 0.31189644 0.029272763 0.34169084
0.16032049 0.24653584 -0.06800444 -0.0633247 0.368209 0.37301233 -0.012127128 0.04701078
0.11395594 0.17060266 0.38796958 -0.18043582 0.4924493 -0.03076211 0.023010835 0.34193516
-0.06532422 0.24617743 0.18078305 0.035412386 0.14064841 0.17803241 0.16372205 0.2833781
0.037744693 0.38577014 -0.094331935 -0.16184549 -0.023394337 -0.029358706 0.22640365 0.08163746
-0.08853038 0.019067688 0.29899204 0.32287621 -0.22403176 -0.3980396 0.13168027 0.11382985
0.10959875 -0.002837832 0.03865451 0.22069518 -0.24249168 -0.012501675 0.3213641 -0.28628117
00000000: 837d 2b3e da68 4a3e 08b8 4c3e 1fb7 943d
00000010: 087d 293e e33d c53d 8bb7 b93e ec74 5c3e
00000020: b96b ab3e 889e 6abe af25 463e 4e3d 403e
00000030: aaf6 e43c e583 a53d 26f4 883e b349 853e
00000040: d040 a03e 09a0 9c3e 2685 953e c482 08bc
00000050: e3c4 303c f832 963d 367b 593d 1aea 083e
00000060: f74f 903c 60eb 4a3e 2dd6 2e3e ab6a 9e3e
00000070: b11b 923e 6b20 6abd 9de8 303d ee3a e03d
00000080: 3b83 463e 33f5 6e3e 61ac b73e 0d88 dbbe
00000090: aca0 9f3e 92a4 1a3e bf10 d93e 854d b73e
000000a0: fdb5 963e e5bc f93e 678e de3e 130e 39bd
000000b0: c2b5 d53e fa89 11bf af86 863e 9b9b 77be
000000c0: c5f0 57bb 1bcd 393c b686 703e 0e54 173e
000000d0: 844e 96be 1584 61bd 3ee1 2a3e a82b c63e
000000e0: 1391 ae3d d89f f0be e337 b43e 41a8 793e
000000f0: c84e 94be f8e8 aa3e 7340 203e 04cf fe3d
00000100: 71f4 043d 1408 613e 2b09 87bc dbd2 3cbe
00000110: 3a9c 85bd f595 513d 89c6 92bd fdfb e23d
00000120: e50c 08be f9d5 8f3e 856f 2a3d 0f3b 50bd
00000130: f0e6 203e bc90 46bc f6ba 18be 13eb 0ebe
00000140: 02bc 11be 7dc7 22be 4d9f 2abd c432 823c
00000150: 646e e7bd cda8 05bd 0821 14bd 8fd9 87bc
00000160: 0417 27be f59f 4dbe d9c9 7abc ae9a 98bd
00000170: a125 47be 96ea da3d ab18 d33d 10b8 003e
00000180: 547a 8b3e 3a91 8fbd acb2 c73c c41f fb3d
00000190: f981 af3e b28c f83d 2def 3d3e d50d 9d3d
000001a0: 9ff8 e23d c71c 343e c288 663e f71a 273c
000001b0: 04c3 843e 680e a4bd 4be7 053c 6a5a 7e3d
000001c0: 6fc2 5c3e a70e ae3e 189e 513e d098 ad3e
000001d0: 0afa 0fbe 79df ddbe 9dad b9bd 5d4b b93e
000001e0: 2d0c 993e 1c83 71be 176b 143e b08f bc3e
000001f0: d52c 8dbd 5213 d33d 64a0 283e 2306 893c
00000200: 16fc 953e e6ff cbbd aeb2 503e 9285 db3d
00000210: 5c57 ae3e 30d5 673e a2ff bd3d 9c06 2e3e
00000220: c0b6 473e 4d3c 8c3d 16aa 3a3e 311a 483c
00000230: 3f22 663d bb31 d43d f946 933e 5e0c 75bc
00000240: 2d63 203e 2c6b 913e e123 743e 3a9b 6b3e
00000250: 6a49 823e ab5e 6c3e 2947 483e 3415 003d
00000260: dcf1 9e3d 493e 31be 7131 043e 3267 333e
00000270: 3f73 d33d 3ef1 cbbd 313e 49be aab1 7b3e
00000280: 921e 873e bf26 b83e d440 b0bd b4da 55be
00000290: 3c91 ba3d 8f11 92be 16c5 c93e 60c8 443e
000002a0: 69ec 32bd 58cb c3be 8ae5 8f3e 681e aebe
000002b0: 1362 863e a7e0 bbbe 3ae4 efbe 6a14 8dbe
000002c0: 5399 a7bd 55f2 45be 612e 623e 1252 5abd
000002d0: bec0 75be 5c90 b93d e05e cc3e 4bd7 083e
000002e0: e736 b1bd 6352 80bd 7864 673e 3d99 723e
000002f0: 4ce5 20be 9791 b63e b6fa 5a3e f5de d03c
00000300: 731a ce3d 732a 2dbe 7a4c 123e 4453 fd3d
00000310: ea9d 83bd e14b 983e 0ebf 91bc afc4 4a3e
00000320: b16b 823e 28ab 95be 21c6 893c 1062 ad3e
00000330: cb01 2a3d e4b0 9f3e 6fcd ef3c 1af2 ae3e
00000340: 0e2b 243e e473 7c3e e945 8bbd 61b0 81bd
00000350: e485 bc3e 79fb be3e ddb0 46bc 608e 403d
00000360: bb61 e93d 77b2 2e3e f3a3 c63e 2bc4 38be
00000370: 5122 fc3e d200 fcbc 3881 bc3c 2012 af3e
00000380: b4c8 85bd f015 7c3e 311f 393e 940c 113d
00000390: 2306 103e 214e 363e c1a6 273e ef16 913e
000003a0: 2e9a 1a3d aa83 c53e 1a31 c1bd d3ba 25be
000003b0: 7ba5 bfbc ab81 f0bc 5cd6 673e 8a31 a73d
000003c0: 6a4f b5bd d733 9c3c 7c15 993e 0850 a53e
000003d0: 9568 65be d9cb cbbe 31d7 063e a01f e93d
000003e0: 4f75 e03d ecfa 39bb 3154 1e3d ebfd 613e
000003f0: bd4f 78be d3d3 4cbc d689 a43e 7293 92be

net.2.bias f4 [16]
0.2674886 0.24565959 -0.009939772 0.29059818 0.15856642 0.03572605 0.048849612 0.21958093
0.1927433 0.0063963276 0.043128554 -0.08648993 0.12915596 0.11716773 0.044755634 0.15900226
00000000: 44f4 883e 308e 7b3e 6dda 22bc 49c9 943e
00000010: 3c5f 223e 7b55 123d 8816 483d d3d9 603e
00000020: 805e 453e 4998 d13b 91a7 303d a221 b1bd
00000030: 7641 043e a3f5 ef3d af51 373d 7dd1 223e

net.4.weight f4 [7, 16]
-0.041069623 -0.30415303 -0.24675162 -0.3054739 0.022652518 -0.48782513 0.4583161 -0.5011701
-0.072019495 0.0561791 0.085169904 -0.43896747 -0.32883456 -0.5461669 0.12857252 0.46757722
-0.16303644 -0.04939317 0.18982854 -0.11942553 -0.31887013 -0.3343599 -0.12243658 -0.13716066
-0.112976246 -0.3009256 -0.49707338 -0.018724289 -0.2816195 -0.068141125 -0.2786162 -0.23618798
-0.010296432 0.57923615 0.33139825 0.089502506 -0.038068447 0.6149706 -0.39192367 0.109799534
0.035800934 -0.0804203 -0.10655813 0.50547934 -0.36836573 0.09028197 -0.3793244 0.00045189893
-0.06666846 -0.35958248 0.16648084 -0.07651091 -0.43124565 0.013324609 -0.29099715 0.10581473
0.106717765 -0.5380425 -0.07933857 -0.1729519 0.41597143 0.34236845 -0.25352922 0.16618957
-0.28117982 0.27693367 0.3443096 -0.30041638 -0.26562333 0.27163264 -0.2205876 -0.19020489
-0.31889352 -0.3909118 0.31482577 -0.39854696 0.0921617 -0.04951986 -0.38367698 -0.40208492
-0.14656776 -0.38212767 -0.16103996 -0.073199555 -0.36294928 -0.16981766 -0.36450523 -0.099809095
-0.30343953 -0.30366802 -0.27305225 0.11381945 0.12471987 -0.18859535 -0.0012540055 -0.37428582
-0.31982636 -0.40522522 0.13009596 -0.27751786 0.042456068 -0.054189924 -0.08831773 -0.038420126
-0.34134963 0.013817268 -0.07967161 -0.25284356 0.1562451 -0.4265278 -0.4204198 -0.27731657
00000000: 9f38 28bd f2b9 9bbe 75ac 7cbe 1367 9cbe
00000010: c691 b93c 37c4 f9be 68a8 ea3e af4c 00bf
00000020: f57e 93bd 0e1c 663d 8f6d ae3d 58c0 e0be
00000030: 015d a8be 98d1 0bbf 84a8 033e 4866 ef3e
00000040: 06f3 26be 7e50 4abd 6a62 423e 5f95 f4bd
00000050: f242 a3be 3931 abbe 08c0 fabd d873 0cbe
00000060: 1760 e7bd ec12 9abe 6780 febe ae63 99bc
00000070: 6e30 90be 938d 8bbd c8a6 8ebe 43db 71be
00000080: 5eb2 28bc d248 143f 08ad a93e 174d b73d
00000090: a9ed 1bbd b76e 1d3f 38aa c8be 94de e03d
000000a0: 00a4 123d 66b3 a4bd 263b dabd 1867 013f
000000b0: 6f9a bcbe c1e5 b83d cf36 c2be d9ec ec39
000000c0: 7989 88bd 321b b8be f479 2a3e c1b1 9cbd
000000d0: 3bcc dcbe 764f 5a3c 94fd 94be 65b5 d83d
000000e0: d88e da3d 27bd 09bf 437c a2bd 4e1a 31be
000000f0: 35fa d43e eb4a af3e 95ce 81be 992d 2a3e
00000100: cdf6 8fbe 40ca 8d3e 5949 b03e 2dd0 99be
00000110: c8ff 87be 6f13 8b3e b7e1 61be 12c5 42be
00000120: 0346 a3be 9725 c8be d830 a13e 590e ccbe
00000130: 46bf bc3d 56d5 4abd 4f71 c4be 13de cdbe
00000140: dc15 16be 3da6 c3be a9e7 24be a6e9 95bd
00000150: 7dd4 b9be aee4 2dbe 6ea0 babe b668 ccbd
00000160: 6d5c 9bbe 607a 9bbe 81cd 8bbe 2c1a e93d
00000170: 226d ff3d 241f 41be 715d a4ba 64a2 bfbe
00000180: 48c0 a3be ae79 cfbe e037 053e d216 8ebe
00000190: 6ae6 2d3d 41f6 5dbd eddf b4bd 6c5e 1dbd
000001a0: 61c5 aebe d361 623c de2a a3bd b674 81be
000001b0: b7fe 1f3e da61 dabe 4441 d7be 70fc 8dbe

net.4.bias f4 [7]
0.105014056 0.029868565 -0.118519716 -0.2717955 -0.25659683 -0.016063936 -0.1980922
00000000: 9c11 d73d ecae f43c 77ba f2bd c828 8bbe
00000010: a960 83be 8498 83bc afd8 4abe
